…
ning_results 函数用于读取训练过程中的损失和准确率记录文件，将其绘制成曲线图，展示训练集和测试集的损失、准确率随训练轮次的变化情况，可将曲线图保存到指定路径下。\n调用该函数绘制并展示训练过程中的损失和准确率曲线图。\n输出结果如下所示：\n1 2 3 4 5 6 7 8 9 10 11 12 13 14 15 16 17 18 19 20 21 22 23 24 25 26 27 28 29 30 31 32 33 34 35 36 37 38 39 40 41 42 43 44 45 46 47 48 49 50 51 52 53 54 55 56 57 58 59 60 61 62 63 64 65 66 67 68 69 70 71 72 73 74 75 76 77 78 79 80 81 animal_labels: [\u0026#39;cat\u0026#39;, \u0026#39;dog\u0026#39;] ---------------------------------------------------------------- Layer (type) Output Shape Param # ================================================================ Conv2d-1 [-1, 32, 148, 148] 896 MaxPool2d-2 [-1, 32, 74, 74] 0 BatchNorm2d-3 [-1, 32, 74, 74] 64 ReLU-4 [-1, 32, 74, 74] 0 Conv2d-5 [-1, 64, 74, 74] 18,496 MaxPool2d-6 [-1, 64, 37, 37] 0 BatchNorm2d-7 [-1, 64, 37, 37] 128 ReLU-8 [-1, 64, 37, 37] 0 Conv2d-9 [-1, 128, 37, 37] 73,856 MaxPool2d-10 [-1, 128, 18, 18] 0 BatchNorm2d-11 [-1, 128, 18, 18] 256 ReLU-12 [-1, 128, 18, 18] 0 Conv2d-13 [-1, 256, 18, 18] 295,168 MaxPool2d-14 [-1, 256, 9, 9] 0 BatchNorm2d-15 [-1, 256, 9, 9] 512 ReLU-16 [-1, 256, 9, 9] 0 Linear-17 [-1, 512] 10,617,344 ReLU-18 [-1, 512] 0 Linear-19 [-1, 64] 32,832 ReLU-20 [-1, 64] 0 Linear-21 [-1, 2] 130 ================================================================ Total params: 11,039,682 Trainable params: 11,039,682 Non-trainable params: 0 ---------------------------------------------------------------- Input size (MB): 0.25 Forward/backward pass size (MB): 17.44 Params size (MB): 42.11 Estimated Total Size (MB): 59.80 ---------------------------------------------------------------- Evaluati
…
