…
&lt;pre tabindex="0" class="chroma"&gt;&lt;code class="language-fallback" data-lang="fallback"&gt;&lt;span class="line"&gt;&lt;span class="cl"&gt;animal_labels: [&amp;#39;cat&amp;#39;, &amp;#39;dog&amp;#39;]
&lt;/span&gt;&lt;/span&gt;&lt;span class="line"&gt;&lt;span class="cl"&gt;----------------------------------------------------------------
&lt;/span&gt;&lt;/span&gt;&lt;span class="line"&gt;&lt;span class="cl"&gt; Layer (type) Output Shape Param #
&lt;/span&gt;&lt;/span&gt;&lt;span class="line"&gt;&lt;span class="cl"&gt;================================================================
&lt;/span&gt;&lt;/span&gt;&lt;span class="line"&gt;&lt;span class="cl"&gt; Conv2d-1 [-1, 32, 148, 148] 896
&lt;/span&gt;&lt;/span&gt;&lt;span class="line"&gt;&lt;span class="cl"&gt; MaxPool2d-2 [-1, 32, 74, 74] 0
&lt;/span&gt;&lt;/span&gt;&lt;span class="line"&gt;&lt;span class="cl"&gt; BatchNorm2d-3 [-1, 32, 74, 74] 64
&lt;/span&gt;&lt;/span&gt;&lt;span class="line"&gt;&lt;span class="cl"&gt; ReLU-4 [-1, 32, 74, 74] 0
&lt;/span&gt;&lt;/span&gt;&lt;span class="line"&gt;&lt;span class="cl"&gt; Conv2d-5 [-1, 64, 74, 74] 18,496
&lt;/span&gt;&lt;/span&gt;&lt;span class="line"&gt;&lt;span class="cl"&gt; MaxPool2d-6 [-1, 64, 37, 37] 0
&lt;/span&gt;&lt;/span&gt;&lt;span class="line"&gt;&lt;span class="cl"&gt; BatchNorm2d-7 [-1, 64, 37, 37] 128
&lt;/span&gt;&lt;/span&gt;&lt;span class="line"&gt;&lt;span class="cl"&gt; ReLU-8 [-1, 64, 37, 37] 0
&lt;/span&gt;&lt;/span&gt;&lt;span class="line"&gt;&lt;span class="cl"&gt; Conv2d-9 [-1, 128, 37, 37] 73,856
&lt;/span&gt;&lt;/span&gt;&lt;span class="line"&gt;&lt;span class="cl"&gt; MaxPool2d-10 [-1, 128, 18, 18] 0
&lt;/span&gt;&lt;/span&gt;&lt;span class="line"&gt;&lt;span class="cl"&gt; BatchNorm2d-11 [-1, 128, 18, 18] 256
&lt;/span&gt;&lt;/span&gt;&lt;span class="line"&gt;&lt;span class="cl"&gt; ReLU-12 [-1, 128, 18, 18] 0
&lt;/span&gt;&lt;/span&gt;&lt;span class="line"&gt;&lt;span class="cl"&gt; Conv2d-13 [-1, 256, 18, 18] 295,168
&lt;/span&gt;&lt;/span&gt;&lt;span class="line"&gt;&lt;span class="cl"&gt; MaxPool2d-14 [-1, 256, 9, 9] 0
&lt;/span&gt;&lt;/span&gt;&lt;span class="line"&gt;&lt;span class="cl"&gt; BatchNorm2d-15 [-1, 256, 9, 9] 512
&lt;/span&gt;&lt;/span&gt;&lt;span class="line"&gt;&lt;span class="cl"&gt; ReLU-16 [-1, 256, 9, 9] 0
&lt;/span&gt;&lt;/span&gt;&lt;span class="line"&gt;&lt;span class="cl"&gt; Linear-17 [-1, 512] 10,617,344
&lt;/span&gt;&lt;/span&gt;&lt;span class="line"&gt;&lt;span class="cl"&gt; ReLU-18 [-1, 512] 0
&lt;/span&gt;&lt;/span&gt;&lt;span class="line"&gt;&lt;span class="cl"&gt; Linear-19 [-1, 64] 32,832
&lt;/span&gt;&lt;/span&gt;&lt;span class="line"&gt;&lt;span class="cl"&gt; ReLU-20 [-1, 64] 0
&lt;/span&gt;&lt;/span&gt;&lt;span class="line"&gt;&lt;span class="cl"&gt; Linear-21 [-1, 2] 130
&lt;/span&gt;&lt;/span&gt;&lt;span class="line"&gt;&lt;span class="cl"&gt;================================================================
&lt;/span&gt;&lt;/span&gt;&lt;span class="line"&gt;&lt;span class="cl"&gt;Total params: 11,039,682
&lt;/span&gt;&lt;/span&gt;&lt;span class="line"&gt;&lt;span class="cl"&gt;Trainable params: 11,039,682
&lt;/span&gt;&lt;/span&gt;&lt;span class="line"&gt;&lt;span class="cl"&gt;Non-trainable params: 0
…
